Model:

Model: ViT(
  (to_patch_embedding): Sequential(
    (0): Rearrange('b c (h p1) (w p2) -> b (h w) (p1 p2 c)', p1=8, p2=8)
    (1): Linear(in_features=192, out_features=512, bias=True)
  )
  (dropout): Dropout(p=0, inplace=False)
  (transformer): Transformer(
    (layers): ModuleList(
      (0): ModuleList(
        (0): PreNorm(
          (norm): LayerNorm((512,), eps=1e-05, elementwise_affine=True)
          (fn): Attention(
            (attend): Softmax(dim=-1)
            (dropout): Dropout(p=0, inplace=False)
            (to_qkv): Linear(in_features=512, out_features=1536, bias=False)
            (to_out): Sequential(
              (0): Linear(in_features=512, out_features=512, bias=True)
              (1): Dropout(p=0, inplace=False)
            )
          )
        )
        (1): PreNorm(
          (norm): LayerNorm((512,), eps=1e-05, elementwise_affine=True)
          (fn): FeedForward(
            (net): Sequential(
              (0): Linear(in_features=512, out_features=512, bias=True)
              (1): GELU()
              (2): Dropout(p=0, inplace=False)
              (3): Linear(in_features=512, out_features=512, bias=True)
              (4): Dropout(p=0, inplace=False)
            )
          )
        )
      )
      (1): ModuleList(
        (0): PreNorm(
          (norm): LayerNorm((512,), eps=1e-05, elementwise_affine=True)
          (fn): Attention(
            (attend): Softmax(dim=-1)
            (dropout): Dropout(p=0, inplace=False)
            (to_qkv): Linear(in_features=512, out_features=1536, bias=False)
            (to_out): Sequential(
              (0): Linear(in_features=512, out_features=512, bias=True)
              (1): Dropout(p=0, inplace=False)
            )
          )
        )
        (1): PreNorm(
          (norm): LayerNorm((512,), eps=1e-05, elementwise_affine=True)
          (fn): FeedForward(
            (net): Sequential(
              (0): Linear(in_features=512, out_features=512, bias=True)
              (1): GELU()
              (2): Dropout(p=0, inplace=False)
              (3): Linear(in_features=512, out_features=512, bias=True)
              (4): Dropout(p=0, inplace=False)
            )
          )
        )
      )
      (2): ModuleList(
        (0): PreNorm(
          (norm): LayerNorm((512,), eps=1e-05, elementwise_affine=True)
          (fn): Attention(
            (attend): Softmax(dim=-1)
            (dropout): Dropout(p=0, inplace=False)
            (to_qkv): Linear(in_features=512, out_features=1536, bias=False)
            (to_out): Sequential(
              (0): Linear(in_features=512, out_features=512, bias=True)
              (1): Dropout(p=0, inplace=False)
            )
          )
        )
        (1): PreNorm(
          (norm): LayerNorm((512,), eps=1e-05, elementwise_affine=True)
          (fn): FeedForward(
            (net): Sequential(
              (0): Linear(in_features=512, out_features=512, bias=True)
              (1): GELU()
              (2): Dropout(p=0, inplace=False)
              (3): Linear(in_features=512, out_features=512, bias=True)
              (4): Dropout(p=0, inplace=False)
            )
          )
        )
      )
      (3): ModuleList(
        (0): PreNorm(
          (norm): LayerNorm((512,), eps=1e-05, elementwise_affine=True)
          (fn): Attention(
            (attend): Softmax(dim=-1)
            (dropout): Dropout(p=0, inplace=False)
            (to_qkv): Linear(in_features=512, out_features=1536, bias=False)
            (to_out): Sequential(
              (0): Linear(in_features=512, out_features=512, bias=True)
              (1): Dropout(p=0, inplace=False)
            )
          )
        )
        (1): PreNorm(
          (norm): LayerNorm((512,), eps=1e-05, elementwise_affine=True)
          (fn): FeedForward(
            (net): Sequential(
              (0): Linear(in_features=512, out_features=512, bias=True)
              (1): GELU()
              (2): Dropout(p=0, inplace=False)
              (3): Linear(in_features=512, out_features=512, bias=True)
              (4): Dropout(p=0, inplace=False)
            )
          )
        )
      )
      (4): ModuleList(
        (0): PreNorm(
          (norm): LayerNorm((512,), eps=1e-05, elementwise_affine=True)
          (fn): Attention(
            (attend): Softmax(dim=-1)
            (dropout): Dropout(p=0, inplace=False)
            (to_qkv): Linear(in_features=512, out_features=1536, bias=False)
            (to_out): Sequential(
              (0): Linear(in_features=512, out_features=512, bias=True)
              (1): Dropout(p=0, inplace=False)
            )
          )
        )
        (1): PreNorm(
          (norm): LayerNorm((512,), eps=1e-05, elementwise_affine=True)
          (fn): FeedForward(
            (net): Sequential(
              (0): Linear(in_features=512, out_features=512, bias=True)
              (1): GELU()
              (2): Dropout(p=0, inplace=False)
              (3): Linear(in_features=512, out_features=512, bias=True)
              (4): Dropout(p=0, inplace=False)
            )
          )
        )
      )
      (5): ModuleList(
        (0): PreNorm(
          (norm): LayerNorm((512,), eps=1e-05, elementwise_affine=True)
          (fn): Attention(
            (attend): Softmax(dim=-1)
            (dropout): Dropout(p=0, inplace=False)
            (to_qkv): Linear(in_features=512, out_features=1536, bias=False)
            (to_out): Sequential(
              (0): Linear(in_features=512, out_features=512, bias=True)
              (1): Dropout(p=0, inplace=False)
            )
          )
        )
        (1): PreNorm(
          (norm): LayerNorm((512,), eps=1e-05, elementwise_affine=True)
          (fn): FeedForward(
            (net): Sequential(
              (0): Linear(in_features=512, out_features=512, bias=True)
              (1): GELU()
              (2): Dropout(p=0, inplace=False)
              (3): Linear(in_features=512, out_features=512, bias=True)
              (4): Dropout(p=0, inplace=False)
            )
          )
        )
      )
      (6): ModuleList(
        (0): PreNorm(
          (norm): LayerNorm((512,), eps=1e-05, elementwise_affine=True)
          (fn): Attention(
            (attend): Softmax(dim=-1)
            (dropout): Dropout(p=0, inplace=False)
            (to_qkv): Linear(in_features=512, out_features=1536, bias=False)
            (to_out): Sequential(
              (0): Linear(in_features=512, out_features=512, bias=True)
              (1): Dropout(p=0, inplace=False)
            )
          )
        )
        (1): PreNorm(
          (norm): LayerNorm((512,), eps=1e-05, elementwise_affine=True)
          (fn): FeedForward(
            (net): Sequential(
              (0): Linear(in_features=512, out_features=512, bias=True)
              (1): GELU()
              (2): Dropout(p=0, inplace=False)
              (3): Linear(in_features=512, out_features=512, bias=True)
              (4): Dropout(p=0, inplace=False)
            )
          )
        )
      )
    )
  )
  (to_latent): Identity()
  (mlp_head): Sequential(
    (0): LayerNorm((512,), eps=1e-05, elementwise_affine=True)
    (1): Linear(in_features=512, out_features=100, bias=True)
  )
)
Parameters:

Learning rate: 0.020000
Total epoches: 200
Loss function: CrossEntropyLoss()
Curves:

learning_curve: [… val_loss_curve: [… train_accuracy_curve[… val_accuracy_curve[… max_val_accuracy: 0.519200
max_val_accuracy_epoch: 142
Test result:

Test accuracy: 0.515700
The number of para:

para_n: 11195492
